mtb_ml_gen/model_gen_dir/MAGIC_WAND_int8x8.tflite (tflite, 11088 bytes, 6 tensors)

model_1/sequential/conv2d/Conv2D i1 [16, 3, 3, 1]
00000000: 0690 7f6c c92e 4bc7 f223 d47f 15d2 5558
00000010: e735 07c3 b553 9689 7fed 9342 7f77 e955
00000020: 2814 4d25 4a20 7f4a 0265 601c 5281 09c2
00000030: 0be9 e1ea 060f 3ccc 813c e2d5 49da 9e99
00000040: 1d5c bf5c 11e3 7f5d 5de9 f87f e3c5 4829
00000050: b60b 3cc5 17f4 81f4 1cb2 157f b008 37e4
00000060: bb38 25fd 309e ee0e b620 e181 0d71 5705
00000070: 6629 107f 180a 23d3 8102 3f8a a3d1 5b07
00000080: 823c 5dbf 377f 8153 03f2 2881 eb69 20e2
6 -112 127 108 -55 46 75 -57
-14 35 -44 127 21 -46 85 88
-25 53 7 -61 -75 83 -106 -119
127 -19 -109 66 127 119 -23 85
40 20 77 37 74 32 127 74
2 101 96 28 82 -127 9 -62
11 -23 -31 -22 6 15 60 -52
-127 60 -30 -43 73 -38 -98 -103
29 92 -65 92 17 -29 127 93
93 -23 -8 127 -29 -59 72 41
-74 11 60 -59 23 -12 -127 -12
28 -78 21 127 -80 8 55 -28
-69 56 37 -3 48 -98 -18 14
-74 32 -31 -127 13 113 87 5
102 41 16 127 24 10 35 -45
-127 2 63 -118 -93 -47 91 7
-126 60 93 -65 55 127 -127 83
3 -14 40 -127 -21 105 32 -30

model_1/sequential/batch_normalization/FusedBatchNormV3 i1 [16] scale=0.13693823 zero_point=-128
00000000: fd7f 1736 4718 3815 2924 3f1d 0d0d 2e4a
17.11728 34.919247 20.677673 24.922758 27.250708 20.814611 25.196634 20.403795
23.142561 22.45787 26.155201 21.499302 19.30829 19.30829 23.827251 27.661522

model_1/sequential/batch_normalization/FusedBatchNormV31 i1 [16] scale=0.014519871 zero_point=127
00000000: 1252 0ede 42eb 1bd1 8050 1a45 52a3 a606
-1.5826659 -0.6533942 -1.6407454 -2.3376992 -0.88571215 -2.148941 -1.4519871 -2.5264575
-3.702567 -0.68243396 -1.466507 -0.84215254 -0.6533942 -3.1943717 -3.1508121 -1.7569044

model_1/sequential/conv2d_1/Conv2D i1 [32, 3, 3, 16]
00000000: f9ff e48d c6fe ef0c 9f51 0e7f 97e6 17f5
00000010: c326 dcc0 f301 f501 f63f 5c33 b408 b3fc
00000020: 2a12 1ebd d065 3544 1207 2011 b50b af11
00000030: 3e0b f4c9 f90b 1513 1c50 2c25 e338 3d3b
00000040: f123 fdb5 ec22 1d63 da1a 2e58 db02 fbf8
00000050: 1206 13b9 a31f 2430 34ef 0803 901a a0f4
00000060: 0f3d 47f4 392d 3774 1b55 1926 ff60 1a58
00000070: 225e 46e7 ee42 5579 e037 2afa cc22 1757
00000080: 0c17 0db8 b935 49f2 54e4 38b4 92fc 8820
00000090: 09ec fb22 e312 1012 8127 1023 2f10 00f7
000000a0: 0bd2 1209 01fa f61f 0110 22e2 10ed 1c14
000000b0: 07e9 e7fc 28f3 f4d8 12de 19db 02eb eb1b
000000c0: 08f4 eaf5 232e ecfb 8a4b 1e35 fa21 fcf1
000000d0: f9b7 02fb 08f5 f825 fc15 2811 2314 2b00
000000e0: f7f8 f3de 3cfd ffd3 2ee3 0ae6 dfe3 fe27
000000f0: 02f2 03ee 1202 02ff 8225 1724 0421 0103
-7 -1 -28 -115 -58 -2 -17 12
-97 81 14 127 -105 -26 23 -11
-61 38 -36 -64 -13 1 -11 1
-10 63 92 51 -76 8 -77 -4
42 18 30 -67 -48 101 53 68
18 7 32 17 -75 11 -81 17
62 11 -12 -55 -7 11 21 19
28 80 44 37 -29 56 61 59
-15 35 -3 -75 -20 34 29 99
-38 26 46 88 -37 2 -5 -8
18 6 19 -71 -93 31 36 48
52 -17 8 3 -112 26 -96 -12
15 61 71 -12 57 45 55 116
27 85 25 38 -1 96 26 88
34 94 70 -25 -18 66 85 121
-32 55 42 -6 -52 34 23 87
12 23 13 -72 -71 53 73 -14
84 -28 56 -76 -110 -4 -120 32
9 -20 -5 34 -29 18 16 18
-127 39 16 35 47 16 0 -9
11 -46 18 9 1 -6 -10 31
1 16 34 -30 16 -19 28 20
7 -23 -25 -4 40 -13 -12 -40
18 -34 25 -37 2 -21 -21 27
8 -12 -22 -11 35 46 -20 -5
-118 75 30 53 -6 33 -4 -15
-7 -73 2 -5 8 -11 -8 37
-4 21 40 17 35 20 43 0
-9 -8 -13 -34 60 -3 -1 -45
46 -29 10 -26 -33 -29 -2 39
2 -14 3 -18 18 2 2 -1
-126 37 23 36 4 33 1 3

model_1/sequential/dense/MatMul i1 [16, 32] scale=0.005979789 zero_point=0
00000000: 4b52 0a53 9ee7 fa16 4a69 f7d5 5de9 0cb4
00000010: 4c41 c6e4 12ff f20d 1902 1ff3 0425 d7fa
00000020: edb2 c928 1607 44bf cde2 3d2d f8ed 55e5
00000030: 5e14 26dc f64c fefe 0030 1d4e 1d1b 1036
00000040: f400 0dec 5722 0406 1dc6 dbe0 c325 f441
00000050: 0bc0 71e6 ff0e faca 372c 245d 0eff 00cc
00000060: 43f8 4e16 191e 2d24 4c2d a2e5 f029 8d3b
00000070: 3cff f926 3db0 b71d 24e8 1d00 f4fc 95b5
00000080: 1f2b 32ec dbe1 fc2e 0ed5 81d8 2b15 a9e7
00000090: b51a ff5c f9b0 13f4 17fd 2497 3bf7 d4dc
000000a0: 0a02 3603 2db7 cb47 061b 3f3c 0952 ffda
000000b0: dc4d c428 f7ca 3b0d b2c2 dfa3 bfd5 2d44
000000c0: 0a14 1edf 06ca 10e6 e0e5 701b f01a 380b
000000d0: b03f e6d4 bc29 2b0d db05 ceeb 0fec 1726
000000e0: f21d f3ff 1b14 f544 29f3 f7d6 35a9 d039
000000f0: f6e2 35d5 3c4b b04f 58d6 0205 d931 86da
0.44848418 0.4903427 0.05979789 0.49632248 -0.58601934 -0.14949472 -0.035878733 0.13155536
0.44250438 0.62787783 -0.0538181 -0.25713092 0.5561204 -0.13753514 0.071757466 -0.45446396
0.45446396 0.38868627 -0.34682775 -0.1674341 0.1076362 -0.005979789 -0.08371705 0.07773726
0.14949472 0.011959578 0.18537346 -0.07773726 0.023919156 0.22125219 -0.24517135 -0.035878733
-0.11361599 -0.46642354 -0.3288884 0.23919156 0.13155536 0.041858524 0.40662566 -0.38868627
-0.30496925 -0.17939366 0.36476713 0.2690905 -0.04783831 -0.11361599 0.50828207 -0.1614543
0.5621002 0.11959578 0.22723198 -0.2152724 -0.05979789 0.45446396 -0.011959578 -0.011959578
0.0 0.28702986 0.17341387 0.46642354 0.17341387 0.1614543 0.09567662 0.3229086
-0.071757466 0.0 0.07773726 -0.11959578 0.5202416 0.20331283 0.023919156 0.035878733
0.17341387 -0.34682775 -0.22125219 -0.19135325 -0.36476713 0.22125219 -0.071757466 0.38868627
0.06577768 -0.3827065 0.67571616 -0.15547451 -0.005979789 0.08371705 -0.035878733 -0.3229086
0.3288884 0.26311073 0.2152724 0.5561204 0.08371705 -0.005979789 0.0 -0.31094903
0.40064585 -0.04783831 0.46642354 0.13155536 0.14949472 0.17939366 0.2690905 0.2152724
0.45446396 0.2690905 -0.5621002 -0.1614543 -0.09567662 0.24517135 -0.6876757 0.35280755
0.35878733 -0.005979789 -0.041858524 0.22723198 0.36476713 -0.47838312 -0.4365246 0.17341387
0.2152724 -0.14351493 0.17341387 0.0 -0.071757466 -0.023919156 -0.63983744 -0.44848418
0.18537346 0.25713092 0.29898944 -0.11959578 -0.22125219 -0.18537346 -0.023919156 0.27507028
0.08371705 -0.25713092 -0.7594332 -0.23919156 0.25713092 0.12557557 -0.5202416 -0.14949472
-0.44848418 0.15547451 -0.005979789 0.55014056 -0.041858524 -0.47838312 0.11361599 -0.071757466
0.13753514 -0.017939366 0.2152724 -0.62787783 0.35280755 -0.0538181 -0.26311073 -0.2152724
0.05979789 0.011959578 0.3229086 0.017939366 0.2690905 -0.4365246 -0.3169288 0.42456502
0.035878733 0.1614543 0.37672672 0.35878733 0.0538181 0.4903427 -0.005979789 -0.22723198
-0.2152724 0.46044374 -0.35878733 0.23919156 -0.0538181 -0.3229086 0.35280755 0.07773726
-0.46642354 -0.3707469 -0.19733304 -0.5561204 -0.38868627 -0.25713092 0.2690905 0.40662566
0.05979789 0.11959578 0.17939366 -0.19733304 0.035878733 -0.3229086 0.09567662 -0.15547451
-0.19135325 -0.1614543 0.6697364 0.1614543 -0.09567662 0.15547451 0.3348682 0.06577768
-0.47838312 0.37672672 -0.15547451 -0.26311073 -0.40662566 0.24517135 0.25713092 0.07773726
-0.22125219 0.029898945 -0.29898944 -0.12557557 0.08969683 -0.11959578 0.13753514 0.22723198
-0.08371705 0.17341387 -0.07773726 -0.005979789 0.1614543 0.11959578 -0.06577768 0.40662566
0.24517135 -0.07773726 -0.0538181 -0.25115114 0.3169288 -0.5202416 -0.28702986 0.34084797
-0.05979789 -0.17939366 0.3169288 -0.25713092 0.35878733 0.44848418 -0.47838312 0.47240332
0.52622145 -0.25115114 0.011959578 0.029898945 -0.23321177 0.29300967 -0.72953427 -0.22723198

model_1/sequential/dense_1/MatMul i1 [4, 16] scale=0.009492399 zero_point=0
00000000: 811d 21ab f018 3b9d 185e 9650 a260 0c16
00000010: fd97 060c 612c cbdf 2a19 05b1 e6da bfab
00000020: e514 a1a7 bb2c 50ae 1b9e 5d23 2b84 2d31
00000030: ea30 2af8 ccb6 ad0e ab32 dad4 2dd3 e93b
-1.2055347 0.27527958 0.31324917 -0.80685395 -0.15187839 0.22781758 0.56005156 -0.9397475
0.22781758 0.8922855 -1.0061944 0.7593919 -0.8922855 0.9112703 0.11390879 0.20883279
-0.028477198 -0.9967019 0.056954395 0.11390879 0.9207627 0.41766557 -0.5030972 -0.31324917
0.39868078 0.23730998 0.047461994 -0.7498995 -0.24680237 -0.36071116 -0.61700594 -0.80685395
-0.2562948 0.18984798 -0.9017779 -0.84482354 -0.65497553 0.41766557 0.7593919 -0.77837676
0.2562948 -0.9302551 0.8827931 0.33223397 0.40817317 -1.1770575 0.42715797 0.46512756
-0.20883279 0.45563516 0.39868078 -0.07593919 -0.49360475 -0.7024375 -0.78786916 0.13289359
-0.80685395 0.47461995 -0.36071116 -0.41766557 0.42715797 -0.42715797 -0.21832518 0.56005156
