mtb_ml_gen/model_gen_dir/MAGIC_WAND_float.tflite (tflite, 25244 bytes, 10 tensors)

dense_1/bias f4 [4]
-0.33739504 0.17368628 -0.029874966 0.13987027
00000000: 0bbf acbe d1da 313e 58bc f4bc 273a 0f3e

dense/bias f4 [16]
0.10886133 -0.026288856 0.080655165 0.110881805 0.114060044 0.011437696 -0.026461983 0.06434828
0.060341015 0.10062052 -0.05249919 0.013211174 -0.008098833 0.073448345 -0.007339168 -0.1139041
00000000: b0f2 de3d ba5b d7bc 892e a53d 0016 e33d
00000010: 5098 e93d 2d65 3b3c cdc6 d8bc 08c9 833d
00000020: 2428 773d 2212 ce3d 6409 57bd ae73 583c
00000030: f8b0 04bc 166c 963d 677d f0bb 8e46 e9bd

conv2d_1/bias f4 [32]
-0.03054328 0.08897616 0.05601999 -0.06336137 0.005299932 -0.079731725 0.0419219 -0.0019064421
-0.024858896 -0.062417608 -0.022304175 -0.10273926 0.00589733 0.045629807 -0.05096909 0.0586021
-0.06363201 -0.12873188 0.017283421 0.07150036 0.056677308 -0.03536098 -0.04168525 -0.10056461
0.039404083 -0.06816123 0.042698503 0.013339861 -0.015232283 0.017296359 -0.0981431 -0.08329972
00000000: e735 fabc 2239 b63d 3875 653d 9bc3 81bd
00000010: 0dab ad3b 634a a3bd 4cb6 2b3d 95e1 f9ba
00000020: e2a4 cbbc 9ba9 7fbd 3fb7 b6bc f668 d2bd
00000030: 643e c13b 52e6 3a3d f7c4 50bd c108 703d
00000040: 8051 82bd 4ad2 03be f695 8d3c c86e 923d
00000050: 7726 683d add6 10bd 27be 2abd d1f4 cdbd
00000060: 2d66 213d 1d98 8bbd a0e4 2e3d 6f8f 5a3c
00000070: d390 79bc 18b1 8d3c 40ff c8bd 0b99 aabd

conv2d/bias f4 [16]
0.0045708944 -0.056225393 0.016376516 0.082962394 0.008036935 0.032910977 0.012164187 0.05455952
0.11206102 0.00043348424 0.01911336 0.005627276 -9.6064985e-05 0.09136763 0.109985985 0.018933691
00000000: 71c7 953b 994c 66bd 0b28 863c 30e8 a93d
00000010: 59ad 033c a9cd 063d 4c4c 473c ce79 5f3d
00000020: 4080 e53d 4545 e339 9f93 9c3c 0365 b83b
00000030: 7f76 c9b8 f41e bb3d 5540 e13d d41a 9b3c

model/sequential/batch_normalization/FusedBatchNormV3 f4 [16]
17.082157 34.919247 20.689478 24.879358 27.217852 20.871384 25.128326 20.38978
23.158094 22.47177 26.198366 21.55489 19.33078 19.356236 23.891378 27.61909
00000000: 42a8 8841 4fad 0b42 0d84 a541 ed08 c741
00000010: 29be d941 98f8 a641 d006 c941 451e a341
00000020: c743 b941 2fc6 b341 4196 d141 6a70 ac41
00000030: 70a5 9a41 92d9 9a41 8b21 bf41 e5f3 dc41

model/sequential/batch_normalization/FusedBatchNormV31 f4 [16]
-1.5814098 -0.6572647 -1.6387104 -2.3403597 -0.88480765 -2.1526687 -1.4483654 -2.5277147
-3.702567 -0.6801788 -1.4669015 -0.83943576 -0.6494933 -3.1876292 -3.145093 -1.755614
00000000: a36b cabf 8042 28bf 43c1 d1bf 74c8 15c0
00000010: c182 62bf 53c5 09c0 0a64 b9bf 14c6 21c0
00000020: dcf6 6cc0 3320 2ebf 6ec3 bbbf 43e5 56bf
00000030: 3145 26bf 1e02 4cc0 3449 49c0 f6b7 e0bf

model/sequential/dense/MatMul f4 [16, 32]
0.45065433 0.48970348 0.059635013 0.49518794 -0.587368 -0.14857042 -0.035121497 0.13060269
0.4438809 0.6266222 -0.05188428 -0.25948963 0.5566912 -0.13972251 0.07131325 -0.4534662
0.45487785 0.38674608 -0.34688044 -0.16966969 0.108301714 -0.003634216 -0.08532432 0.07481714
0.15055738 0.009471057 0.18563911 -0.07922592 0.02255641 0.22298008 -0.24723484 -0.033181418
-0.11500432 -0.467177 -0.32982552 0.23826532 0.13130216 0.040100127 0.40575048 -0.39115304
-0.30440986 -0.17756625 0.36672577 0.26984164 -0.050161727 -0.11319653 0.510316 -0.162842
0.5629085 0.1179456 0.22591384 -0.21588752 -0.057620913 0.45273477 -0.013454144 -0.011322822
0.002208143 0.28955525 0.17606184 0.46514794 0.1713508 0.15926518 0.095237255 0.32047352
-0.069849275 -0.0006402973 0.079926066 -0.11679096 0.52151984 0.20070171 0.024206601 0.037662
0.17580028 -0.34849882 -0.22271343 -0.18939981 -0.36761916 0.22122791 -0.073473014 0.3898861
0.068535425 -0.3823928 0.67515385 -0.1568036 -0.005373053 0.080803536 -0.03449146 -0.3208873
0.32973605 0.26304016 0.21791649 0.5571455 0.08203661 -0.0045331926 -0.0028748987 -0.31302753
0.40186605 -0.047132045 0.46430814 0.1295013 0.15161838 0.17820647 0.2717889 0.21296671
0.4574418 0.27016142 -0.56384134 -0.16007161 -0.09515996 0.24561527 -0.6874982 0.35369962
0.36034855 -0.005054791 -0.039968688 0.2302038 0.3624905 -0.48134342 -0.4348886 0.17151213
0.21638553 -0.14615087 0.17287472 0.0027190526 -0.07258889 -0.022194562 -0.6407201 -0.4514145
0.1863399 0.25576553 0.30108035 -0.119942404 -0.21863204 -0.18356873 -0.026868401 0.27319783
0.08398835 -0.2560174 -0.7583081 -0.23637058 0.25730821 0.12551504 -0.52235055 -0.15163925
-0.4509582 0.15307713 -0.0062018377 0.55274135 -0.039775062 -0.4777984 0.11131316 -0.06961279
0.13609952 -0.015350312 0.21602836 -0.62859875 0.35385156 -0.05453503 -0.26277104 -0.21467854
0.058944862 0.010572982 0.3225943 0.017686054 0.27117026 -0.43686327 -0.31895345 0.42692626
0.037072908 0.15856968 0.3772656 0.35860404 0.051184118 0.49066898 -0.0052568875 -0.22481664
-0.21657707 0.4625233 -0.36172923 0.23773998 -0.05460319 -0.3255184 0.3545021 0.07919955
-0.46375495 -0.3715253 -0.19723801 -0.5583463 -0.3871399 -0.25962558 0.27143392 0.40512678
0.059446596 0.12229019 0.18041623 -0.19497958 0.036874395 -0.32017127 0.093486816 -0.15540579
-0.19207531 -0.16418777 0.67159706 0.15918127 -0.09292381 0.15557179 0.33275235 0.06613624
-0.47750413 0.3781845 -0.15712546 -0.26467627 -0.40690428 0.243431 0.2568547 0.07882666
-0.2220455 0.0273196 -0.29907355 -0.12667398 0.08815539 -0.1203449 0.13729 0.22884642
-0.081054576 0.17090955 -0.08026373 -0.0066005336 0.16440104 0.11881128 -0.06453565 0.40918314
0.24744011 -0.07715034 -0.055412367 -0.2520211 0.3143392 -0.5226066 -0.28497687 0.3389454
-0.06222479 -0.18042901 0.31660423 -0.25810292 0.36072952 0.44980654 -0.47987527 0.47353375
0.52716374 -0.25333124 0.013230248 0.03069308 -0.23304142 0.29149163 -0.7272113 -0.2278502
00000000: 2abc e63e 6aba fa3e d843 743d 4689 fd3e
00000010: c05d 16bf d822 18be 8fdb 0fbd b6bc 053e
00000020: 5b44 e33e 506a 203f 9c84 54bd d3db 84be
00000030: 5183 0e3f 6b13 0fbe ae0c 923d b92c e8be
00000040: c0e5 e83e 9503 c63e 509a b1be e4bd 2dbe
00000050: 4acd dd3d 072c 6ebb 84be aebd bb39 993d
00000060: b72b 1a3e 7e2c 1b3c 2e18 3e3e 3341 a2bd
00000070: 38c8 b83c e454 643e 212b 7dbe 3de9 07bd
00000080: 6387 ebbd d331 efbe e4de a8be d3fb 733e
00000090: 1374 063e 0840 243d 87be cf3e 3645 c8be
000000a0: 9cdb 9bbe edd3 35be 7bc3 bb3e af28 8a3e
000000b0: 6276 4dbd 95d3 e7bd 12a4 023f 0ec0 26be
000000c0: c51a 103f 768d f13d f555 673e 9e11 5dbe
000000d0: e803 6cbd dacc e73e c56e 5cbc 5c83 39bc
000000e0: 7eb6 103b 9640 943e 8e49 343e df27 ee3e
000000f0: 9676 2f3e 6916 233e c00b c33d 1b15 a43e
00000100: 230d 8fbd a0d9 27ba 47b0 a33d 1930 efbd
00000110: 5382 053f c084 4d3e ec4c c63c 7843 1a3d
00000120: fd04 343e 706e b2be fd0e 64be 06f2 41be
00000130: 9438 bcbe 9289 623e 0579 96bd 279f c73e
00000140: 4d5c 8c3d fdc8 c3be e2d6 2c3f 1f91 20be
00000150: 6f10 b0bb 537c a53d eb46 0dbd 574b a4be
00000160: 2ad3 a83e 33ad 863e 8025 5f3e 16a1 0e3f
00000170: cf02 a83d 2d8b 94bb cc68 3cbb 2545 a0be
00000180: 63c1 cd3e 880d 41bd ccb9 ed3e fd9b 043e
00000190: d941 1b3e c27b 363e ea27 8b3e f213 5a3e
000001a0: d035 ea3e 9952 8a3e e857 10bf d0e9 23be
000001b0: 3ae3 c2bd 9282 7b3e e2ff 2fbf 1e18 b53e
000001c0: 9b7f b83e a9a2 a5bb 35b6 23bd 8cba 6b3e
000001d0: 5b98 b93e a572 f6be b8a9 debe e0a0 2f3e
000001e0: 2b94 5d3e 93a8 15be 1206 313e 2232 323b
000001f0: 7ca9 94bd 5fd1 b5bc 3c06 24bf cd1f e7be
00000200: e3cf 3e3e b3f3 823e 3427 9a3e 5da4 f5bd
00000210: 14e1 5fbe 71f9 3bbe 1f1b dcbc 96e0 8b3e
00000220: 1602 ac3d b614 83be 7b20 42bf 210b 72be
00000230: e7bd 833e 0487 003e c4b8 05bf 5247 1bbe
00000240: fee3 e6be 40c0 1c3e c938 cbbb 7580 0d3f
00000250: 2deb 22bd fea1 f4be 27f8 e33d 2791 8ebd
00000260: ac5d 0b3e e07f 7bbc 8a36 5d3e d9eb 20bf
00000270: 082c b53e 2060 5fbd ed89 86be b1d4 5bbe
00000280: 2b70 713d 4d3a 2d3c 152b a53e 58e2 903c
00000290: d4d6 8a3e 8bac dfbe de4d a3be 1496 da3e
000002a0: c3d9 173d 1760 223e f528 c13e f39a b73e
000002b0: 70a6 513d f738 fb3e f841 acbb 5536 66be
000002c0: 61c6 5dbe dbcf ec3e 9334 b9be 1c72 733e
000002d0: 98a7 5fbd 59aa a6be 4d81 b53e 6033 a23d
000002e0: 4a71 edbe 9038 bebe c3f8 49be c8ef 0ebf
000002f0: 3337 c6be a5ed 84be 63f9 8a3e c76c cf3e
00000300: 467e 733d 4773 fa3d 08bf 383e baa8 47be
00000310: 9b09 173d 7ded a3be 0476 bf3d b222 1fbe
00000320: 64af 44be d720 28be c9ed 2b3f 6a00 233e
00000330: d74e bebd 364e 1f3e 845e aa3e 7072 873d
00000340: 6c7b f4be 66a1 c13e 7fe5 20be a683 87be
00000350: c255 d0be fa45 793e 7682 833e df6f a13d
00000360: e55f 63be 5bcd df3c 2b20 99be d3b6 01be
00000370: d08a b43d 6377 f6bd c095 0c3e b756 6a3e
00000380: f1ff a5bd ea02 2f3e 4f61 a4bd 4a49 d8bb
00000390: bf58 283e 5453 f33d 442b 84bd 7480 d13e
000003a0: f160 7d3e ff00 9ebd 14f8 62bd e908 81be
000003b0: 11f1 a03e 8cc9 05bf 7de8 91be 408a ad3e
000003c0: 6cdf 7ebd 62c2 38be f319 a23e 1126 84be
000003d0: 8ab1 b83e 0b4d e63e 36b2 f5be 0473 f23e
000003e0: 34f4 063f a2b4 81be afc3 583c 0e70 fb3c
000003f0: 69a2 6ebe 643e 953e 852a 3abf 9051 69be

model/sequential/dense_1/MatMul f4 [4, 16]
-1.2055347 0.27128243 0.3123933 -0.8090502 -0.15588321 0.22512536 0.56384426 -0.9430866
0.23191816 0.89144063 -1.0091935 0.7564573 -0.89077353 0.9118837 0.116939686 0.20409095
-0.030119121 -0.9969226 0.060618915 0.11586608 0.924778 0.41427398 -0.5060705 -0.3143408
0.40098125 0.23551716 0.04556881 -0.7537484 -0.2457897 -0.36187285 -0.6210128 -0.8030243
-0.2573468 0.19031109 -0.8987125 -0.84569114 -0.65567195 0.41980422 0.75748485 -0.7779584
0.25326857 -0.9294056 0.8840884 0.3302077 0.40572852 -1.176236 0.42595693 0.4684278
-0.20544867 0.45379174 0.40262467 -0.07254653 -0.4982457 -0.703815 -0.79099756 0.1314333
-0.80478513 0.4735106 -0.36275288 -0.41710967 0.4231411 -0.43137187 -0.22295885 0.55568606
00000000: f64e 9abf 88e5 8a3e 04f2 9f3e ea1d 4fbf
00000010: d99f 1fbe 4387 663e 1958 103f 206e 71bf
00000020: f47b 6d3e 7435 643f 412d 81bf 30a7 413f
00000030: bc09 64bf 3671 693f 137e ef3d 38fd 503e
00000040: 60bc f6bc 5236 7fbf 8a4b 783d 324b ed3d
00000050: 40be 6c3f b81b d43e d68d 01bf 47f1 a0be
00000060: 6a4d cd3e 692b 713e 5ca6 3a3d a8f5 40bf
00000070: 4cb0 7bbe 6647 b9be b2fa 1ebf 0093 4dbf
00000080: f6c2 83be e9e0 423e 0612 66bf 377f 58bf
00000090: 1eda 27bf 94f0 d63e 87ea 413f 4828 47bf
000000a0: 6bac 813e 87ed 6dbf 9e53 623f fc10 a93e
000000b0: a6bb cf3e e78e 96bf 0717 da3e c5d5 ef3e
000000c0: 2361 52be 6457 e83e d224 ce3e 4693 94bd
000000d0: 0f1a ffbe 382d 34bf d17e 4abf 7396 063e
000000e0: 6606 4ebf fb6f f23e bfba b9be 668f d5be
000000f0: f3a5 d83e c6dc dcbe 534f 64be 7141 0e3f

model/sequential/conv2d/Conv2D f4 [16, 3, 3, 1]
0.016346054 -0.29730797 0.33824173 0.28667524 -0.14714484 0.12357049 0.19848076 -0.1511235
-0.03742313 0.098362304 -0.12535846 0.35963926 0.058338 -0.13152839 0.24021074 0.2503568
-0.07200575 0.14888985 0.013482812 -0.12191767 -0.14990026 0.16484395 -0.21251175 -0.23780657
0.25353304 -0.0374511 -0.21814516 0.16675079 0.31948406 0.2990222 -0.056628995 0.21276577
0.10036373 0.04913026 0.19338371 0.09431485 0.2677368 0.11645 0.4622764 0.2693159
0.0075458786 0.36840189 0.34841135 0.1006928 0.2982399 -0.4219086 0.029421566 -0.20506476
0.036480278 -0.07477584 -0.10446274 -0.073037624 0.018541252 0.04911389 0.11629254 -0.099949054
-0.2447812 0.116418555 -0.058194537 -0.083606385 0.14006202 -0.07411931 -0.18921986 -0.23008089
0.06528347 0.20600271 -0.14608613 0.20483866 0.038839564 -0.06563033 0.28363 0.20736024
0.3596527 -0.08818065 -0.030207405 0.48996794 -0.111609735 -0.22913438 0.27904838 0.15637983
-0.28620687 0.042607017 0.2284536 -0.22455366 0.08732565 -0.045202453 -0.48248723 -0.04506666
0.10510345 -0.2963142 0.061921723 0.3834998 -0.24009138 0.02531826 0.16516557 -0.08569826
-0.2097852 0.16809103 0.110732414 -0.011988731 0.17054425 -0.35121074 -0.06521852 0.050140094
-0.26387364 0.11385968 -0.11191633 -0.45579845 0.046623833 0.41671187 0.31909245 0.01952854
0.37347484 0.15029065 0.060467254 0.46715474 0.089662746 0.02112104 0.07405763 -0.09617474
-0.26880565 0.003981915 0.13253975 -0.24919125 -0.19776352 -0.09898007 0.20975798 0.017056298
-0.29138198 0.13957466 0.2151431 -0.14935263 0.12716344 0.29382795 -0.29313007 0.20751305
0.007848919 -0.03536971 0.099301815 -0.31885824 -0.05216748 0.2633428 0.08119588 -0.074245356
00000000: 29e8 853c c038 98be 052e ad3e 19c7 923e
00000010: 23ad 16be 8612 fd3d 8a3e 4b3e 1ec0 1abe
00000020: ff48 19bd 2d72 c93d f85d 00be a322 b83e
00000030: d4f3 6e3d 61af 06be cef9 753e c42e 803e
00000040: c077 93bd 9576 183e 03e7 5c3c f9af f9bd
00000050: 747f 19be dacc 283e ae9c 59be 9183 73be
00000060: 15cf 813e 5366 19bd 7261 5fbe b8c0 2a3e
00000070: 6a93 a33e 7019 993e cef3 67bd 45df 593e
00000080: 808b cd3d d03c 493d 6106 463e 2528 c13d
00000090: cc14 893e 567d ee3d 7eaf ec3e c6e3 893e
000000a0: 6b43 f73b 2c9f bc3e f962 b23e 0738 ce3d
000000b0: e6b2 983e 6704 d8be 7f05 f13c 7ffc 51be
000000c0: 586c 153d 1324 99bd 90f0 d5bd c094 95bd
000000d0: d3e3 973c a52b 493d c92a ee3d 17b2 ccbd
000000e0: eca7 7abe da6c ee3d 655d 6ebd d339 abbd
000000f0: 6b6c 0f3e ddcb 97bd dac2 41be 539a 6bbe
00000100: 57b3 853d 60f2 523e 9a97 15be 3ac1 513e
00000110: 3c16 1f3d 3269 86bd f437 913e 3e56 543e
00000120: 6624 b83e 0e98 b4bd 8575 f7bc 14dd fa3e
00000130: a593 e4bd 34a2 6abe 6edf 8e3e 0922 203e
00000140: b589 92be b284 2e3d beef 693e 65f1 65be
00000150: cad7 b23d 3526 39bd 9108 f7be d197 38bd
00000160: 7a40 d73d 7fb6 97be a2a1 7d3d 165a c43e
00000170: 84da 75be 3d68 cf3c 2a21 293e 9282 afbd
00000180: eed1 56be 0e20 2c3e adc7 e23d 626c 44bc
00000190: 27a3 2e3e e5d1 b3be 4a91 85bd b35f 4d3d
000001a0: 721a 87be 442f e93d 6434 e5bd 6a5e e9be
000001b0: a2f8 3e3d 425b d53e 1660 a33e 51fa 9f3c
000001c0: 1838 bf3e cbe5 193e 83ac 773d e82e ef3e
000001d0: 1aa1 b73d 0806 ad3c 87ab 973d 43f7 c4bd
000001e0: e5a0 89be b97a 823b 80b8 073e fe2b 7fbe
000001f0: 8582 4abe 10b6 cabd ccca 563e a6b9 8b3c
00000200: 0530 95be a9ec 0e3e 794e 5c3e e5ef 18be
00000210: 2237 023e 9e70 963e 2515 96be 4d7e 543e
00000220: c198 003c d4df 10bd c05e cb3d 6341 a3be
00000230: 91ad 55bd ded4 863e 074a a63d f30d 98bd

model/sequential/conv2d_1/Conv2D f4 [32, 3, 3, 16]
-0.015914226 -0.0023311856 -0.06321843 -0.25988007 -0.13049042 -0.0046000257 -0.037773598 0.026786959
-0.21814187 0.18290661 0.032513652 0.2860318 -0.2367413 -0.05919113 0.051381223 -0.02438278
-0.13812722 0.085513905 -0.08057938 -0.14520471 -0.028202359 0.0021619198 -0.0247323 0.0025342368
-0.023270236 0.14234373 0.20616825 0.11438515 -0.17006862 0.017413719 -0.17278524 -0.00858929
0.09505699 0.03980211 0.06751004 -0.15090936 -0.10911416 0.22856937 0.11882207 0.15241481
0.041128617 0.0161778 0.07227708 0.038707234 -0.1699135 0.023837766 -0.18194056 0.038138937
0.13980567 0.024700182 -0.026379906 -0.124970645 -0.016621217 0.025451897 0.0468087 0.042391293
0.0634143 0.17947389 0.09955887 0.08409387 -0.06458989 0.1265101 0.13669284 0.13186826
-0.034838554 0.07869255 -0.007183823 -0.16822435 -0.04582422 0.077142246 0.06430146 0.22350076
-0.0849998 0.057987202 0.10383266 0.19917913 -0.082631275 0.004787124 -0.010709484 -0.017509844
0.040712405 0.012695936 0.04277004 -0.15895751 -0.20881471 0.0706427 0.080189504 0.10877506
0.11784665 -0.038460854 0.017261516 0.0067650215 -0.25185797 0.057954118 -0.21588065 -0.026643341
0.034483492 0.13627976 0.16009961 -0.02718584 0.12927772 0.102405004 0.12470832 0.26237777
0.061604314 0.19203307 0.05672343 0.086262174 -0.002755769 0.21596852 0.058204837 0.19776194
0.07634366 0.21187429 0.1581574 -0.057375833 -0.03995833 0.14908375 0.19052666 0.2716079
-0.07255666 0.12457973 0.095546156 -0.013198956 -0.117511265 0.07634285 0.052247595 0.19634815
0.02735421 0.050976716 0.02954062 -0.16181135 -0.15949564 0.119346835 0.16511557 -0.031284124
0.18924317 -0.06363774 0.12546515 -0.1713932 -0.2473085 -0.008490045 -0.270997 0.07273711
0.026664373 -0.061651096 -0.016754152 0.10606628 -0.088673614 0.054879658 0.050714675 0.05439302
-0.39446917 0.12177117 0.04944237 0.108277015 0.14630021 0.048695404 -0.0011380524 -0.026453972
0.035318434 -0.14239332 0.056568928 0.028180014 0.002180702 -0.018105201 -0.030031096 0.09493471
0.0024778545 0.04865616 0.10530477 -0.09184267 0.048316274 -0.06007905 0.08583691 0.06282657
0.02162504 -0.07028456 -0.07638819 -0.0139171565 0.123527855 -0.040922258 -0.036720287 -0.12490181
0.056005947 -0.10515224 0.077512406 -0.11525362 0.0076625803 -0.06644391 -0.0650717 0.08482192
0.024773473 -0.036788657 -0.069294296 -0.035092313 0.10810554 0.14208831 -0.060573123 -0.01625121
-0.36626163 0.23387969 0.09182721 0.16349003 -0.019092679 0.10296733 -0.011628357 -0.047028877
-0.022713035 -0.2277124 0.0049526175 -0.015050103 0.0243738 -0.03506174 -0.023566943 0.116137296
-0.011460376 0.065256484 0.12490711 0.05376087 0.10912735 0.06071551 0.13489717 -0.0004552406
-0.028633751 -0.024835838 -0.041864935 -0.10621629 0.18651469 -0.008876063 -0.0022140967 -0.13943197
0.14443126 -0.0911604 0.030897489 -0.08137382 -0.10372588 -0.09036551 -0.0048491093 0.122475006
0.0064683105 -0.04421336 0.008738838 -0.05582166 0.05461596 0.0053896355 0.006456213 -0.0016278916
-0.39242628 0.115092166 0.07240275 0.11301203 0.0128880935 0.10311327 0.0043372307 0.008936834
00000000: 8d5e 82bc cec6 18bb aa78 81bd 000f 85be
00000010: 489f 05be d0bb 96bb 7db8 1abd 5370 db3c
00000020: 9560 5fbe df4b 3b3e 092d 053d c372 923e
00000030: 506c 72be 6672 72bd 1e75 523d 65be c7bc
00000040: 3971 0dbe ea21 af3d cd06 a5bd 8bb0 14be
00000050: a208 e7bc ffae 0d3b 649b cabc 7015 263b
00000060: 39a1 bebc 8ec2 113e c51d 533e c342 ea3d
00000070: 7826 2ebe 37a7 8e3c 9dee 30be 18ba 0cbc
00000080: 3dad c23d 8a07 233d b442 8a3d fc87 1abe
00000090: 3f77 dfbd 170e 6a3e fc58 f33d a112 1c3e
000000a0: 7b76 283d 4e87 843c 0106 943d 7a8b 1e3d
000000b0: cefd 2dbe 6b47 c33c a04e 3abe 9337 1c3d
000000c0: 3829 0f3e 0958 ca3c ac1a d8bc 9cf0 ffbd
000000d0: 3829 88bc 7f80 d03c 7bba 3f3d 7ea2 2d3d
000000e0: 5bdf 813d 01c8 373e 85e5 cb3d 6839 ac3d
000000f0: b447 84bd dd8b 013e 35f9 0b3e 7908 073e
00000100: dfb2 0ebd 8f29 a13d 4666 ebbb 0143 2cbe
00000110: 2db2 3bbd c1fc 9d3d 7cb0 833d 62dd 643e
00000120: 6014 aebd fd83 6d3d 38a6 d43d 9df5 4b3e
00000130: 963a a9bd 4fdd 9c3b d576 2fbc ce70 8fbc
00000140: 0dc2 263d 9d02 503c a32f 2f3d c2c5 22be
00000150: 86d3 55be 1fad 903d 653a a43d 75c5 de3d
00000160: 9659 f13d 2189 1dbd 0668 8d3c 1dad dd3b
00000170: 87f3 80be 4c61 6d3d d10f 5dbe 2343 dabc
00000180: 903e 0d3d ec8c 0b3e 27f1 233e d7b4 debc
00000190: 6161 043e b7b9 d13d 1367 ff3d 6156 863e
000001a0: ce54 7c3d 51a4 443e d456 683d 39aa b03d
000001b0: 229a 34bb da26 5d3e 3268 6e3d 1b82 4a3e
000001c0: 115a 9c3d 93f5 583e 03f4 213e ec02 6bbd
000001d0: 59ab 23bd 69a9 183e 6c19 433e 3110 8b3e
000001e0: 9698 94bd a823 ff3d b4ad c33d 6f40 58bc
000001f0: bfa9 f0bd a459 9c3d 9301 563d 7d0f 493e
00000200: f015 e03c f6cc 503d 2cff f13c e0b1 25be
00000210: d352 23be 1d6c f43d 0e14 293e c823 00bd
00000220: f6c8 413e 8154 82bd f079 003e b381 2fbe
00000230: 703e 7dbe d419 0bbc 1ec0 8abe 32f7 943d
00000240: 3e6f da3c dc85 7cbd 0140 89bc 4739 d93d
00000250: 839a b5bd 7ec9 603d 31ba 4f3d 37cb 5e3d
00000260: ddf7 c9be 2a63 f93d 1584 4a3d 57c0 dd3d
00000270: b9cf 153e d574 473d b42a 95ba 00b6 d8bc
00000280: 10aa 103d 8ecf 11be d2b4 673d c6d9 e63c
00000290: 1cea 0e3b 5c51 94bc c603 f6bc 216d c23d
000002a0: 8063 223b ae4b 473d 07aa d73d 0318 bcbd
000002b0: 49e7 453d 7315 76bd 43cb af3d 37ab 803d
000002c0: ff26 b13c 5af1 8fbd 6971 9cbd c904 64bc
000002d0: 2cfc fc3d 199e 27bd 0368 16bd 85cc ffbd
000002e0: 7e66 653d 0f5a d7bd d3be 9e3d 170a ecbd
000002f0: 6216 fb3b bf13 88bd 5044 85bd 1db7 ad3d
00000300: bdf1 ca3c b4af 16bd 2bea 8dbd f5bc 0fbd
00000310: 7066 dd3d 997f 113e 861b 78bd 4221 85bc
00000320: a586 bbbe 287e 6f3e e70f bc3d ee69 273e
00000330: 4068 9cbc 89e0 d23d dd84 3ebc 5aa1 40bd
00000340: b010 babc 702d 69be 9149 a23b b594 76bc
00000350: 90ab c73c e69c 0fbd 760f c1bc 64d9 ed3d
00000360: 4dc4 3bbc 31a5 853d 4dcf ff3d 5c34 5c3d
00000370: 297e df3d d4b0 783d 7c22 0a3e 5cad eeb9
00000380: 5491 eabc 8774 cbbc 917a 2bbd ed87 d9bd
00000390: b5fd 3e3e e86c 11bc 611a 11bb 41c7 0ebe
000003a0: cae5 133e 4eb2 babd bb1c fd3c 51a7 a6bd
000003b0: 3c6e d4bd 8d11 b9bd 47e5 9ebb 2dd4 fa3d
000003c0: 1ff4 d33b 1119 35bd 582d 0f3c 41a5 64bd
000003d0: fcb4 5f3d 8a9b b03b a48e d33b fa5e d5ba
000003e0: 19ec c8be 71b5 eb3d e547 943d da72 e73d
000003f0: 9528 533c 0d2d d33d 541f 8e3b cc6b 123c
